OmniBotCtrl/OmniBotCtrl/sim2sim_lcm/model_jitt.pt (torch, 952606 bytes, 34 tensors)

weight f2 [512, 195]
-0.01554 -0.03693 0.007233 -0.06097 0.01701 0.03302 -0.01956 0.02567
-0.02316 -0.0681 0.02312 0.0495 0.06757 0.0532 -0.06186 0.02258
-0.0714 0.06824 -0.04333 0.0722 -0.03427 -0.1048 0.03174 -0.01595
0.06946 0.03604 0.07404 0.003172 0.03506 0.04276 0.02098 0.01624
-0.06335 0.04907 0.0713 -0.04434 0.06055 -0.00325 0.0326 -0.02222
-0.03696 0.03278 -0.10724 0.05865 0.0345 0.03006 0.03256 -0.01301
-0.07837 0.05212 -0.02818 0.0866 0.05292 0.05164 0.03595 0.004864
0.01814 -0.10315 -0.01639 0.002588 -0.08453 0.06244 0.02817 -0.057
-0.03702 0.05753 0.11017 0.0318 -0.03854 0.03714 -0.04437 -0.0687
0.009544 -0.02182 0.042 0.02939 -0.02997 -0.05835 -0.07135 0.007774
-0.004913 -0.0817 -0.01596 0.02335 -0.0841 0.002365 -0.002195 -0.05472
0.0052 -0.03973 0.01857 -0.04514 -0.06274 -0.08624 0.03102 0.05206
-0.1252 -0.03537 -0.0868 -0.03099 0.03763 9.95e-06 0.1118 -0.0658
-0.03406 -0.01352 0.002497 -0.00811 -0.03488 0.0234 0.03873 0.07263
-0.003542 0.0634 -0.006504 -0.04477 -0.003351 -0.03415 0.04053 -0.05804
-0.12463 0.006287 0.0586 -0.08044 -0.073 0.0449 -0.03244 0.01179
0.02954 0.0874 0.07153 -0.02336 -0.04883 0.05713 0.0846 -0.092
0.02748 -0.02477 0.01775 -0.01491 0.0751 0.01338 0.0007553 0.09937
0.11725 -0.01431 0.05954 0.02203 -0.02779 0.02493 -0.06665 0.01718
-0.03815 0.0484 -0.04883 -0.02644 0.05933 0.02829 -0.05835 -0.1082
-0.0483 0.05762 -0.08276 -0.01409 -0.05377 0.03102 0.067 -0.02
-0.001764 -0.00879 -0.0549 -0.0924 0.008514 0.0498 -0.1537 0.02104
-0.1913 0.0457 -0.10675 0.03326 0.05707 -0.1805 -0.00548 -0.011024
-0.0631 -0.03485 0.01613 -0.01772 0.05228 -0.02155 0.04132 -0.02184
-0.003643 0.0591 0.0859 -0.04178 -0.02695 -0.03284 -0.06506 -0.1848
-0.00598 0.01852 -0.07385 0.04272 0.01116 -0.1376 0.03506 0.05914
-0.05685 0.0654 0.00947 0.02339 0.06033 0.02837 -0.072 -0.0791
0.03918 -0.0579 -0.04578 0.012405 -0.06085 0.0667 0.00235 0.02455
-0.026 0.04562 -0.0926 0.01569 0.0699 0.02182 0.002342 -0.00785
0.006462 0.06287 -0.05945 0.0456 -0.0459 -0.000966 -0.2173 -0.03604
0.04633 -0.03424 0.0016575 -0.02106 -0.010956 -0.004295 -0.02078 -0.001002
0.02104 -0.09283 0.0938 -0.01826 0.05075 0.00477 -0.01967 -0.004883
00000000: f5a3 baa8 681f ceab 5b24 3a28 02a5 9226
00000010: eea5 5cac eb25 562a 532c cf2a ebab c825
00000020: 92ac 5e2c 8ca9 9f2c 63a8 b5ae 1028 15a4
00000030: 722c 9d28 bd2c 7f1a 7d28 7929 5f25 2824
00000040: 0eac 482a 902c ada9 c02b a89a 2c28 b0a5
00000050: bba8 3228 ddae 822b 6a28 b227 2b28 a9a2
00000060: 04ad ac2a 37a7 8b2d c62a 9c2a 9a28 fb1c
00000070: a524 9aae 32a4 4d19 69ad fe2b 3627 4cab
00000080: bda8 5d2b 0d2f 1228 efa8 c128 aea9 66ac
00000090: e320 96a5 6029 8627 aca7 78ab 91ac f61f
000000a0: 089d 3bad 16a4 fa25 62ad d818 7f98 01ab
000000b0: 531d 16a9 c124 c7a9 04ac 85ad f127 aa2a
000000c0: 02b0 87a8 8ead efa7 d128 a700 282f 36ac
000000d0: 5ca8 eca2 1d19 27a0 77a8 fe25 f528 a62c
000000e0: 419b 0f2c a99e bba9 dd9a 5fa8 3029 6eab
000000f0: faaf 701e 802b 26ad acac bf29 27a8 0922
00000100: 9027 982d 942c fba5 40aa 502b 6a2d e3ad
00000110: 0927 57a6 8b24 a2a3 ce2c da22 3012 5c2e
00000120: 812f 54a3 9f2b a425 1da7 6226 44ac 6624
00000130: e2a8 322a 40aa c5a6 982b 3e27 78ab edae
00000140: 2faa 602b 4cad 37a3 e2aa f127 4a2c 1fa5
00000150: 3a97 80a0 07ab eaad 5c20 602a ebb0 6325
00000160: 1fb2 d929 d5ae 4228 4e2b c7b1 9d9d a5a1
00000170: 0aac 76a8 2124 89a4 b12a 84a5 4a29 97a5
00000180: 769b 912b 7f2d 59a9 e6a6 34a8 2aac eab1
00000190: 209e be24 baac 7829 b721 67b0 7d28 922b
000001a0: 47ab 302c d920 fd25 b92b 4327 9cac 10ad
000001b0: 0429 69ab dca9 5a22 caab 452c d018 4926
000001c0: a8a6 d729 edad 0424 792c 9625 cc18 05a0
000001d0: 9e1e 062c 9cab d629 e0a9 ea93 f4b2 9da8
000001e0: ee29 62a8 ca16 64a5 9ca1 669c 52a5 1b94
000001f0: 6325 f1ad 012e ada4 7f2a e21c 09a5 009d

bias f2 [512]
0.0975 -0.0667 0.0869 -0.0672 0.03546 0.06903 0.069 -0.0833
-0.004486 0.06082 -0.00738 0.0698 -0.0833 -0.05417 -0.02556 0.0294
0.06055 0.0605 0.04657 0.02573 -0.04816 -0.02667 -0.0743 0.0482
-0.006615 -0.06635 0.05255 0.0184 -0.05255 0.0571 0.00888 -0.001459
0.01564 0.04434 -0.0796 -0.02959 -0.05133 0.04773 0.076 0.04816
0.00613 -0.01486 0.00464 0.06384 -0.0683 0.0449 -0.01704 -0.087
0.0752 -0.02214 0.0535 0.02005 0.004772 -0.05795 0.00817 -0.05795
-0.02109 0.06366 -0.05325 -0.03888 0.00456 -0.03082 -0.02908 -0.01694
0.04688 0.004894 -0.03778 0.01114 0.0172 0.005833 0.04767 0.0214
0.0905 -0.02414 0.004395 0.0286 0.03247 -0.01964 0.04773 -0.03568
-0.0251 -0.04245 -0.00915 0.00841 -0.07153 0.03044 -0.03134 -0.02776
0.01257 0.03653 0.03552 -0.05222 0.02705 0.010376 0.03464 0.06232
0.02428 -0.01376 -0.03772 -0.074 -0.00322 -0.02722 0.0597 0.04794
-0.08624 0.01762 0.01562 0.012184 -0.03693 0.011375 0.03314 0.0486
0.002943 -0.04456 0.02097 -0.0095 0.019 0.06415 0.01787 -0.0207
0.0951 0.01666 -0.02992 0.06018 0.072 -0.0599 0.06335 -0.04834
-0.001512 -0.0874 0.07385 -0.0696 -0.07227 -0.0763 -0.05396 0.04367
-0.005352 -0.0626 0.0515 -0.0233 0.06433 -0.05557 0.0175 0.037
-0.05103 -0.008705 0.02264 -0.02141 -0.004593 0.011 -0.0893 0.02206
-0.01634 -0.03452 0.000874 -0.05054 -0.02931 -0.001692 0.05307 0.00912
-0.0764 -0.02444 -0.01764 -0.02045 0.02753 -0.03906 -0.014404 0.02895
-0.04633 -0.006287 0.0407 0.00926 0.005707 0.04135 0.001799 -0.043
-0.04727 -0.001561 -0.0861 0.0242 -0.02222 -0.06082 -0.07043 0.02544
-0.03708 0.02728 -0.03067 0.0423 0.0784 -0.0238 0.012856 -0.007534
-0.05704 0.00723 -0.00621 0.0109 -0.04514 -0.02231 -0.05075 0.0738
0.0018215 0.01765 -0.0775 0.03134 0.05917 0.0756 0.00687 -0.006577
-0.00579 0.0659 0.05258 0.09534 -0.06247 0.0738 -0.0646 0.01264
0.0241 -0.03998 0.01581 -0.0522 -0.06476 -0.0628 -0.05286 0.07
-0.06323 0.004883 0.02173 0.05023 0.002424 0.066 0.04694 -0.03568
0.0639 0.0808 -0.02312 0.05206 -0.01648 -0.01758 0.0166 -0.002699
0.0324 -0.006718 -0.01671 0.07434 -0.01073 0.09064 0.01168 -0.04715
0.08624 0.009445 -0.0633 0.01177 -0.01918 -0.04956 0.0698 0.003601
00000000: 3d2e 45ac 902d 4dac 8a28 6b2c 6a2c 55ad
00000010: 989c c92b 8f9f 782c 55ad efaa 8ba6 8727
00000020: c02b be2b f629 9626 2aaa d4a6 c1ac 2b2a
00000030: c69e 3fac ba2a b624 baaa 4f2b 8c20 fa95
00000040: 0124 ad29 18ad 93a7 92aa 1c2a dd2c 2a2a
00000050: 471e 9ca3 c01c 162c 5fac bf29 5da4 91ad
00000060: d02c aba5 d92a 2225 e31c 6bab 2f20 6bab
00000070: 66a5 132c d1aa faa8 ab1c e4a7 72a7 56a4
00000080: 002a 031d d6a8 b421 6724 f91d 1a2a 7a25
00000090: cb2d 2ea6 801c 5227 2828 07a5 1c2a 91a8
000000a0: 6da6 6fa9 afa0 4e20 94ac cb27 03a8 1ba7
000000b0: 7022 ad28 8c28 afaa ed26 5021 6f28 fa2b
000000c0: 3726 0ca3 d4a8 bcac 989a f8a6 a42b 232a
000000d0: 85ad 8324 ff23 3d22 baa8 d321 3e28 392a
000000e0: 071a b4a9 5e25 dda0 dd24 1b2c 9324 4da5
000000f0: 162e 4424 a9a7 b42b 9c2c abab 0e2c 30aa
00000100: 3196 98ad ba2c 74ac a0ac e2ac e8aa 9729
00000110: 7b9d 02ac 982a f7a5 1e2c 1dab 7b24 bc28
00000120: 88aa 75a0 cc25 7ba5 b49c a221 b7ad a625
00000130: 2fa4 6ba8 2913 78aa 81a7 ee96 cb2a ab20
00000140: e4ac 42a6 84a4 3ca5 0c27 00a9 60a3 6927
00000150: eea9 709e 3629 be20 d81d 4b29 5e17 81a9
00000160: 0daa 6596 83ad 3226 b0a5 c9ab 82ac 8326
00000170: bfa8 fc26 daa7 6a29 052d 18a6 9522 b79f
00000180: 4dab 671f 5c9e 9521 c7a9 b6a5 7faa b92c
00000190: 7617 8524 f6ac 0328 932b d72c 091f bc9e
000001a0: ee9d 382c bb2a 1a2e ffab b92c 22ac 7922
000001b0: 2b26 1ea9 0c24 aeaa 25ac 05ac c4aa 7b2c
000001c0: 0cac 001d 9025 6e2a f718 392c 022a 91a8
000001d0: 172c 2c2d eba5 aa2a 38a4 80a4 4024 8799
000001e0: 2628 e19e 47a4 c22c 7ea1 cd2d fb21 09aa
000001f0: 852d d620 0dac 0722 e9a4 58aa 782c 601b

weight f2 [256, 512]
0.01804 0.0363 -0.001303 -0.03366 -0.03009 -0.02971 0.02928 -0.03275
0.0056 0.003103 0.04007 0.01613 -0.0526 -0.01122 0.001717 0.005253
-0.03378 -0.05334 -0.0256 -0.0752 0.04984 0.01178 -0.01958 -0.0667
0.02632 -0.02217 -0.04736 0.000991 0.09875 0.04294 0.03867 0.01877
0.01814 0.0342 -0.002474 0.02628 -0.03378 -0.0897 0.03445 -0.016
-0.02478 -0.07526 -0.07697 0.05347 0.01926 -0.01515 0.0309 0.04303
0.02269 -0.06396 0.003897 0.0566 0.044 -0.0689 -0.010414 -0.0013685
-0.0442 -0.00531 0.02194 -0.02283 -0.02943 -0.06665 -0.04468 -0.01431
0.03986 -0.02637 0.03098 0.00811 0.05634 0.05145 -0.05795 -0.0701
-0.02821 0.03302 0.00252 -0.04425 0.01157 0.02873 -0.011406 0.05365
0.02948 -0.02058 -0.0872 0.05908 0.01802 0.066 -0.012085 -0.003723
0.07355 0.03378 0.02039 0.02351 0.01962 -0.06793 0.001747 0.0686
0.0355 0.01398 0.00496 -0.004555 0.00603 -0.007587 -0.01381 -0.02376
-0.01106 -0.00212 -0.01791 0.0222 0.05328 0.08905 0.014534 -0.01813
-0.05243 -0.0194 -0.0002372 -0.0198 -0.0385 -0.04865 -0.007454 0.00505
-0.01802 -0.01034 -0.02983 0.01631 0.02126 -0.00959 0.05386 0.0678
-0.02878 -0.00972 0.04947 -0.01651 0.013145 -0.02452 -0.01363 -0.01605
-0.01328 0.001972 0.01204 0.0611 -0.04227 -0.04834 0.0001157 0.009834
0.013374 -0.04688 0.02672 -0.00454 0.03146 0.02394 -0.0319 -0.01825
-0.013115 -0.04352 -0.02765 -0.000716 -0.01218 -0.00554 0.0823 -0.00839
0.000253 0.03546 0.03836 -0.0114 0.004475 -0.06476 -0.05853 0.01451
0.0605 0.04346 -0.01894 0.05176 -0.03812 0.08325 -0.0502 -0.01793
0.0465 0.04437 -0.04596 -0.01209 -0.03867 -0.00887 -0.04352 0.04944
-0.041 0.0002894 -0.06027 0.00878 -0.003332 -0.05423 0.03937 0.0635
0.04993 0.0224 -0.01493 -0.09454 0.002218 0.01007 -0.04037 0.03964
-0.059 -0.006084 0.06152 0.01361 -0.0461 -0.01942 0.05804 0.03757
0.02179 0.05463 0.01129 -0.05322 -0.016 -0.006077 -0.0435 0.01569
0.02939 0.0434 -0.02959 -0.01305 -0.04202 -0.04214 0.0042 -0.00361
-0.01646 -0.01259 -0.06186 0.03754 0.02243 -0.00626 0.0685 0.0629
-0.065 -0.02391 -0.0241 0.06604 -0.04865 -0.003723 0.0679 -0.01503
0.010056 0.0419 -0.004272 0.00984 -0.00741 -0.03912 0.02356 -0.02542
0.0317 0.04114 0.00942 -0.0521 -0.06415 -0.07587 -0.04413 -0.01029
00000000: 9e24 a528 5695 4fa8 b4a7 9ba7 7f27 31a8
00000010: bc1d 5b1a 2129 2124 bcaa bfa1 0817 611d
00000020: 53a8 d4aa 8ea6 d0ac 612a 0822 03a5 45ac
00000030: bd26 ada5 10aa 0f14 522e 7f29 f328 ce24
00000040: a524 6128 1199 ba26 53a8 bead 6928 19a4
00000050: 58a6 d1ac edac d82a ee24 c2a3 e927 8229
00000060: cf25 18ac fb1b 3f2b a229 69ac 55a1 9b95
00000070: a8a9 709d 9e25 d8a5 89a7 44ac b8a9 54a3
00000080: 1a29 c0a6 ee27 2720 362b 962a 6bab 7dac
00000090: 39a7 3a28 2919 aaa9 ed21 5b27 d7a1 de2a
000000a0: 8c27 45a5 95ad 902b 9d24 392c 30a2 a09b
000000b0: b52c 5328 3825 0526 0625 59ac 2817 642c
000000c0: 8b28 2823 141d aa9c 2d1e c59f 12a3 15a6
000000d0: aaa1 5798 96a4 af25 d22a b32d 7123 a4a4
000000e0: b6aa f7a4 c68b 12a5 eea8 3aaa a29f 2c1d
000000f0: 9da4 4ba1 a3a7 2d24 7125 e9a0 e52a 572c
00000100: 5ea7 faa0 552a 3aa4 bb22 47a6 fba2 1ca4
00000110: cda2 0a18 2a22 d22b 69a9 30aa 9507 0921
00000120: d922 00aa d726 a69c 0728 2126 15a8 aca4
00000130: b7a2 92a9 14a7 de91 3ca2 ac9d 442d 4ca0
00000140: 250c 8a28 e928 d6a1 951c 25ac 7eab 6e23
00000150: be2b 9029 d9a4 a02a e1a8 542d 6daa 97a4
00000160: f429 ae29 e2a9 31a2 f3a8 8ba0 92a9 542a
00000170: 3fa9 be0c b7ab 7f20 d39a f1aa 0a29 102c
00000180: 642a bc25 a5a3 0dae 8b18 2821 2ba9 1329
00000190: 8dab 3b9e e02b f822 e7a9 f9a4 6e2b cf28
000001a0: 9425 fe2a c821 d0aa 19a4 399e 91a9 0424
000001b0: 8627 8e29 93a7 aea2 61a9 65a9 4d1c 659b
000001c0: 37a4 72a2 ebab ce28 be25 699e 622c 072c
000001d0: 29ac 1fa6 2ba6 3a2c 3aaa a09b 582c b2a3
000001e0: 2621 5d29 609c 0a21 969f 02a9 0826 82a6
000001f0: 0f28 4429 d320 abaa 1bac dbac a6a9 45a1

bias f2 [256]
0.0006223 -0.01191 -0.001541 -0.03397 0.02826 -0.01886 -0.02072 -0.05597
-0.02774 -0.04453 -0.06003 -0.01424 -0.04626 -0.05368 0.0465 0.04147
-0.0537 0.01842 0.04736 -0.0227 0.00631 0.0269 0.01063 0.04895
-0.000518 -0.005726 0.015236 -0.0196 0.02834 -0.01036 0.0344 -0.04248
-0.01985 -0.0747 -0.00454 -0.05246 0.0651 -0.0088 0.043 -0.00945
-0.0458 -0.01965 0.04828 -0.01487 0.0641 0.00566 0.04718 0.011986
-0.02946 0.04666 0.00551 -0.03058 0.02074 -0.01955 -0.02295 0.03024
-0.02681 -0.0484 0.012276 -0.0005865 0.02876 0.0728 0.01127 0.02063
-0.05414 0.02333 0.03973 -0.04416 -0.03375 -0.02144 0.005817 -0.02307
0.0831 0.01245 0.05182 0.01286 -0.04926 0.00999 0.01004 -0.0196
-0.02992 0.013596 0.02394 -0.010376 0.02927 0.003614 0.01732 0.01407
-0.05292 -0.04663 0.0696 -0.0465 -0.01994 0.01398 0.04242 0.01388
-0.001915 0.04092 0.012886 -0.02983 0.01333 0.01279 0.01584 -0.03226
-0.01016 -0.01082 -0.02939 -0.0239 0.00137 0.01974 -0.0721 0.0426
0.015144 -0.09247 -0.0006394 0.04556 -0.0508 -0.02289 -0.02223 -0.00589
-0.03577 0.01692 -0.03378 0.0646 -0.06097 -0.053 -0.0573 0.05313
-0.04083 -0.0461 -0.0372 -0.006733 -0.01215 -0.01036 -0.02109 -0.03232
0.04135 0.02032 0.003584 0.03558 0.003239 -0.05316 -0.002863 -0.041
-0.01839 -0.01298 0.02779 -0.0416 -0.05325 -0.04022 0.01668 0.01228
-0.01892 0.04453 -0.01436 -0.0601 -0.007793 -0.00778 0.04565 -0.012184
-0.0276 0.02411 0.02835 -0.002651 -0.003614 0.01761 -0.04724 0.01689
-0.04114 0.006523 -0.03072 -0.0444 0.00604 0.00871 -0.00945 -0.002792
0.0251 -0.03265 -0.03964 -0.04782 -0.0358 0.02222 0.012054 -0.05188
-0.00806 -0.00523 -0.02107 -0.03644 -0.022 0.0652 0.01971 0.05417
-0.06305 -0.006207 0.01536 -0.03592 -0.03806 -0.01855 -0.0407 0.02325
-0.001291 -0.02228 -0.02414 -0.02802 0.05588 -0.0745 -0.02718 -0.0438
-0.0574 0.01029 0.02412 0.04886 0.02905 -0.02379 0.006187 -0.02548
0.04987 -0.03995 -0.0546 0.02042 0.05545 -0.02481 -0.01604 0.01736
0.03467 0.02328 -0.0626 -0.03336 0.01206 -0.07495 -0.0704 -0.0193
0.026 0.02657 0.014786 -0.0223 0.0199 0.0159 -0.06287 -0.007183
-0.04135 0.02419 0.012764 -0.026 0.04068 -0.005295 0.014404 0.004936
-0.0534 -0.0529 -0.06046 0.02393 0.04825 -0.03308 -0.03613 -0.006577
00000000: 1911 19a2 5096 59a8 3c27 d4a4 4ea5 2aab
00000010: 1aa7 b3a9 afab 4aa3 eca9 dfaa f429 4f29
00000020: e0aa b724 102a d0a5 761e e326 7121 442a
00000030: 3e90 dd9d cd23 05a5 4127 4ea1 6728 70a9
00000040: 15a5 c8ac a69c b7aa 2b2c 81a0 8129 d7a0
00000050: dda9 08a5 2e2a 9da3 1a2c cc1d 0a2a 2322
00000060: 8ba7 f929 a41d d4a7 4f25 01a5 e0a5 be27
00000070: dda6 32aa 4922 ce90 5d27 a92c c521 4825
00000080: eeaa f925 1629 a7a9 52a8 7da5 f51d e8a5
00000090: 522d 6022 a22a 9622 4eaa 1d21 2421 05a5
000000a0: a9a7 f622 2126 50a1 7e27 671b 6f24 3423
000000b0: c6aa f8a9 742c f4a9 1ba5 2823 6e29 1b23
000000c0: d897 3d29 9922 a3a7 d322 8c22 0e24 21a8
000000d0: 34a1 8aa1 86a7 1ea6 9d15 0e25 9dac 7429
000000e0: c123 ebad 3d91 d529 81aa dca5 b1a5 089e
000000f0: 94a8 5524 53a8 222c ceab c9aa 56ab cd2a
00000100: 3aa9 e7a9 c3a8 e59e 39a2 4ea1 66a5 23a8
00000110: 4b29 3425 571b 8e28 a21a ceaa dd99 3fa9
00000120: b5a4 a5a2 1d27 53a9 d1aa 26a9 4524 4a22
00000130: d8a4 b329 5aa3 b1ab fb9f f79f d829 3da2
00000140: 11a7 2c26 4227 6e99 679b 8224 0caa 5324
00000150: 44a9 ae1e dda7 afa9 2f1e 7620 d7a0 b899
00000160: 6d26 2ea8 13a9 1faa 95a8 b025 2c22 a4aa
00000170: 20a0 5b9d 65a5 aaa8 a2a5 2c2c 0c25 ef2a
00000180: 09ac 5b9e dd23 99a8 dfa8 c0a4 36a9 f425
00000190: 4a95 b4a5 2ea6 2ca7 272b c5ac f5a6 9ba9
000001a0: 59ab 4521 2d26 412a 7027 17a6 561e 86a6
000001b0: 622a 1da9 fdaa 3a25 192b 5aa6 1ba4 7224
000001c0: 7028 f625 02ac 45a8 2d22 ccac 81ac f1a4
000001d0: a826 cd26 9223 b5a5 1825 1224 06ac 5b9f
000001e0: 4ba9 3126 8922 a8a6 3529 6c9d 6023 0e1d
000001f0: d6aa c5aa bdab 2026 2d2a 3ca8 a0a8 bc9e

weight f2 [256]
1.051 1.008 1.034 0.9893 1.032 1.042 1.031 1.025
1.006 1.01 1.034 0.9995 1.019 1.017 1.009 1.016
1.005 1.021 1.002 0.9688 1.014 1.031 1.007 1.018
1.052 1.038 1.009 1.021 1.0205 1.02 1.0205 1.012
1.004 1.011 1.013 1.033 1.012 1.007 0.9985 1.024
1.015 1.018 0.993 0.99 0.995 0.993 0.9976 1.01
1.053 1.026 1.021 1.017 1.035 1.034 1.035 1.015
0.98 1.032 1.043 1.0205 1.005 1.02 1.005 1.021
1.047 1.01 1.047 0.9917 1.008 1.024 0.9805 0.9956
1.045 1.0205 0.9985 1.055 1.034 1.017 1.01 1.005
1.031 0.977 1.033 0.993 0.9893 1.022 1.016 1.011
1.007 1.022 0.9966 1.028 1.031 1.004 1.012 0.99
1.013 0.993 0.9785 1.012 1.014 0.972 0.992 1.024
1.03 1.0205 1.005 1.001 1.007 1.0205 1.013 1.008
1.004 1.014 1.006 1.045 1.0 0.979 1.033 1.008
1.017 0.9814 1.04 1.024 0.994 1.037 1.022 1.043
0.9897 1.02 1.04 1.007 1.016 1.025 1.026 1.022
1.021 1.01 1.006 1.037 1.002 0.9897 1.001 1.048
1.016 1.017 1.017 1.014 1.018 1.021 0.9985 1.001
1.008 1.011 1.039 1.023 1.04 1.037 0.9956 1.026
1.0205 1.01 1.023 0.99 1.034 0.991 1.023 0.9917
0.9824 1.06 1.015 1.004 1.0 0.983 1.034 1.063
1.027 1.0205 1.011 1.012 0.9717 1.02 1.013 1.032
1.001 1.03 1.02 1.023 1.028 1.016 1.015 1.019
1.014 1.025 1.016 0.9966 0.9844 1.0205 1.029 0.9863
1.001 0.985 0.9775 1.041 0.9824 1.0 0.9795 1.023
0.99 1.054 0.99 0.9893 1.012 0.991 1.025 1.029
1.021 1.044 1.015 1.012 1.027 1.032 1.03 1.026
1.0205 0.9976 0.987 0.9976 1.035 1.017 1.015 1.047
1.023 0.9946 0.9766 1.021 1.02 1.035 1.03 1.019
0.9775 0.958 1.029 1.002 1.062 1.011 0.997 1.009
1.017 1.059 1.023 0.989 1.04 0.995 1.016 0.9854
00000000: 343c 083c 233c ea3b 213c 2b3c 203c 1a3c
00000010: 063c 0a3c 233c ff3b 133c 113c 093c 103c
00000020: 053c 163c 023c c03b 0e3c 203c 073c 123c
00000030: 353c 273c 093c 163c 153c 143c 153c 0c3c
00000040: 043c 0b3c 0d3c 223c 0c3c 073c fd3b 193c
00000050: 0f3c 123c f23b ec3b f63b f23b fb3b 0a3c
00000060: 363c 1b3c 163c 113c 243c 233c 243c 0f3c
00000070: d73b 213c 2c3c 153c 053c 143c 053c 163c
00000080: 303c 0a3c 303c ef3b 083c 193c d83b f73b
00000090: 2e3c 153c fd3b 383c 233c 113c 0a3c 053c
000000a0: 203c d13b 223c f23b ea3b 173c 103c 0b3c
000000b0: 073c 173c f93b 1d3c 203c 043c 0c3c ec3b
000000c0: 0d3c f23b d43b 0c3c 0e3c c73b f03b 193c
000000d0: 1f3c 153c 053c 013c 073c 153c 0d3c 083c
000000e0: 043c 0e3c 063c 2e3c 003c d53b 223c 083c
000000f0: 113c da3b 293c 193c f43b 263c 173c 2c3c
00000100: eb3b 143c 293c 073c 103c 1a3c 1b3c 173c
00000110: 163c 0a3c 063c 263c 023c eb3b 013c 313c
00000120: 103c 113c 113c 0e3c 123c 163c fd3b 013c
00000130: 083c 0b3c 283c 183c 293c 263c f73b 1b3c
00000140: 153c 0a3c 183c ec3b 233c ee3b 183c ef3b
00000150: dc3b 3d3c 0f3c 043c 003c dd3b 233c 413c
00000160: 1c3c 153c 0b3c 0c3c c63b 143c 0d3c 213c
00000170: 013c 1f3c 143c 183c 1d3c 103c 0f3c 133c
00000180: 0e3c 1a3c 103c f93b e03b 153c 1e3c e43b
00000190: 013c e13b d23b 2a3c dc3b 003c d63b 183c
000001a0: ec3b 373c ec3b ea3b 0c3c ee3b 1a3c 1e3c
000001b0: 163c 2d3c 0f3c 0c3c 1c3c 213c 1f3c 1b3c
000001c0: 153c fb3b e53b fb3b 243c 113c 0f3c 303c
000001d0: 183c f53b d03b 163c 143c 243c 1f3c 133c
000001e0: d23b aa3b 1e3c 023c 3f3c 0b3c fa3b 093c
000001f0: 113c 3c3c 183c e93b 293c f63b 103c e23b

bias f2 [256]
0.02486 -0.013504 0.00414 0.01249 0.01475 0.00477 0.01721 -0.00447
0.0332 -0.01823 -0.00337 0.002022 -0.0257 -0.00824 0.03455 -0.002947
-0.010605 0.02084 0.002558 -0.002499 0.02238 0.005592 0.03128 -0.0035
0.01061 0.01318 0.01614 -0.01376 0.01569 0.00317 0.00499 -0.004833
-0.01274 -0.02315 -0.002886 -0.001974 0.00952 0.003506 0.001139 -0.01516
-0.006676 0.01564 0.005455 0.01178 0.005173 0.0199 -0.005154 -0.00888
0.00232 0.015015 -0.011894 0.03026 0.01382 -0.001807 -0.01037 0.00398
0.003136 -0.0226 0.02313 -0.0128 -0.0006847 0.01746 0.0157 -0.015396
-0.0085 0.002052 -0.001322 -0.014275 0.01926 -0.00706 0.03833 -0.004208
0.022 -0.000811 0.02513 0.01111 0.01672 0.002327 -0.01176 0.02168
-0.01727 0.01855 0.01826 0.001933 0.01675 0.005455 0.00819 0.004013
0.007607 -0.02773 0.01533 -0.001062 -0.0493 0.005886 0.00912 0.01498
0.002462 0.02277 0.004715 -0.01452 -0.0175 0.00201 -0.02567 0.001129
0.013115 -0.004276 -0.00966 -0.001442 0.00864 0.04718 -0.01522 -0.00284
0.00967 -0.03012 0.01033 -0.0204 -0.006462 0.02074 -0.01573 0.01223
0.00959 0.01642 -0.007496 0.0301 -0.02144 0.0114 0.001764 0.02248
-0.02591 -0.015305 -0.0098 -0.01688 0.02803 0.02843 0.01628 0.001663
0.002398 0.02214 -0.01229 0.00883 0.001913 -0.02171 -0.00583 -0.02737
-0.01316 -0.005657 0.005188 -0.02281 -0.02182 -0.02289 -0.01686 0.00767
0.0104 0.02788 -0.015045 -0.01067 -0.01152 0.00886 0.02141 -0.005177
0.003733 -0.00874 0.02089 -0.002928 -0.007698 -0.01958 -0.01947 -0.003185
-0.012665 -7.03e-06 0.02048 -0.005898 0.01654 0.01854 -0.02052 0.02263
0.0213 -0.0002413 -0.003353 0.00934 -0.002317 0.02222 0.007965 -0.01199
-0.015114 -0.006557 -0.0236 0.007072 -0.01584 0.0135 0.01339 0.03052
-0.03336 0.005596 0.00216 -0.011734 0.00841 -0.0201 0.001038 0.003557
0.01055 0.002172 -0.0079 -0.01144 0.000623 -0.03114 -0.01115 -0.02155
0.0007377 -0.006104 0.004093 0.0116 -0.003502 0.01859 -0.004375 0.00729
0.02307 -0.0006022 -0.005337 0.02922 0.003456 -0.02443 -0.00805 0.03378
-0.002806 0.00496 -0.0247 0.01585 -0.00329 -0.02808 -0.00793 0.002998
-0.00892 0.002377 -0.00424 -0.001398 0.01343 -0.005024 -0.01616 0.00848
-0.01587 0.02182 -0.0251 -0.001227 0.00584 0.00838 0.01874 -0.02238
-0.00942 -0.02733 0.004677 0.00612 -0.001847 -0.00132 -0.013145 -0.0129
00000000: 5d26 eaa2 3d1c 6522 8d23 e21c 6824 949c
00000010: 4028 aba4 e79a 2418 94a6 38a0 6c28 099a
00000020: 6ea1 5625 3d19 1e99 bb25 ba1d 0128 2b9b
00000030: 6f21 c022 2224 0ca3 0424 7e1a 1c1d f39c
00000040: 86a2 eda5 e999 0b98 e020 2e1b aa14 c3a3
00000050: d69e 0124 961d 0822 4c1d 1825 479d 8ca0
00000060: c018 b023 17a2 bf27 1323 6797 4fa1 131c
00000070: 6c1a c9a5 ec25 8ea2 9c91 7824 0524 e2a3
00000080: 5aa0 3418 6a95 4fa3 ee24 3b9f e828 4f9c
00000090: a225 a592 6f26 b021 4824 c418 05a2 8d25
000000a0: 6ca4 c024 ad24 eb17 4a24 961d 3120 1c1c
000000b0: ca1f 19a7 d923 5a94 4faa 071e ab20 ab23
000000c0: 0b19 d425 d41c 6fa3 7ba4 1e18 92a6 a014
000000d0: b722 619c f2a0 e895 6c20 0a2a cba3 d199
000000e0: f320 b6a7 4a21 39a5 9e9e 4f25 07a4 4322
000000f0: e920 3424 ad9f b527 7da5 d621 3a17 c125
00000100: a2a6 d6a3 05a1 52a4 2d27 4727 2b24 d016
00000110: e918 ab25 4ba2 8520 d617 8fa5 f89d 02a7
00000120: bda2 cb9d 501d d7a5 96a5 dca5 51a4 db1f
00000130: 5321 2327 b4a3 77a1 e6a1 8920 7b25 4d9d
00000140: a51b 7aa0 5925 ff99 e29f 03a5 fca4 869a
00000150: 7ca2 7680 3e25 0a9e 3c24 bf24 41a5 cb25
00000160: 7425 e88b de9a c820 bf98 b025 1420 24a2
00000170: bda3 b79e 0ba6 3e1f 0ea4 e922 db22 d027
00000180: 45a8 bb1d 6c18 02a2 4e20 25a5 4014 491b
00000190: 6721 7318 0ba0 dba1 1b11 f9a7 b5a1 84a5
000001a0: 0b12 409e 311c f021 2c9b c224 7b9c 771f
000001b0: e825 ef90 779d 7b27 141b 41a6 1fa0 5328
000001c0: bf99 141d 53a6 0f24 bd9a 30a7 0fa0 241a
000001d0: 91a0 de18 579c ba95 e022 259d 23a4 5720
000001e0: 10a4 9625 6da6 0795 fb1d 4a20 cc24 bba5
000001f0: d3a0 ffa6 ca1c 441e 9197 6895 bba2 9ba2

weight f2 [128, 256]
0.0405 0.04416 0.05914 -0.03564 0.00527 0.03117 0.004593 -0.02333
0.05188 -0.03748 0.0646 0.03433 -0.02956 -0.05716 0.05148 0.04208
0.04865 -0.0747 0.02995 -0.0193 0.04004 0.0683 -0.02672 0.02956
-0.001352 0.07153 0.04907 0.02362 0.02765 -0.02026 -0.004673 0.0193
-0.013855 -0.05453 0.0333 -0.005093 -0.0466 0.003044 0.0301 -0.01773
0.007412 -0.01551 -0.03043 -0.08636 0.00285 0.059 -0.06137 -0.007545
-0.03035 0.01561 -0.03075 -0.007565 -0.08124 -0.0001899 -0.0014 -0.036
0.0724 0.01017 -0.0532 -0.013145 -0.027 0.02493 -0.07117 -0.0087
-0.00898 -0.04037 0.04483 -0.005894 -0.01065 -0.02553 -0.002388 0.00995
0.0501 -0.03537 -0.0665 0.03522 0.0769 -0.0436 0.06073 -0.006893
0.01207 -0.0861 -0.03055 0.02802 0.04904 -0.003586 0.03268 0.01938
0.0674 0.03452 0.01151 0.03735 -0.077 -0.0716 -0.03372 -0.006203
-0.02812 -0.01309 -0.0436 -0.01325 -0.02487 0.07025 -0.0328 -0.01155
-0.05325 -0.0631 0.0969 0.04724 0.005764 -0.03723 -0.043 -0.03275
-0.00996 -0.02467 0.01222 -0.05414 -0.01085 -0.02745 0.05133 -0.01205
-0.02676 -0.011024 -0.0172 0.0348 -0.03223 0.0364 0.06836 -0.04715
0.014824 0.05377 -0.01889 -0.05304 -0.04544 -0.01134 0.02095 0.05164
-0.06122 0.00159 0.0627 0.09863 0.03482 0.0454 0.02306 -0.03705
0.01762 0.04694 0.0251 -0.04492 -0.01776 0.04633 -0.05936 0.077
0.04202 -0.04733 -0.05084 -0.0575 0.01467 -0.0569 0.0648 0.02556
0.02988 0.03026 0.02895 -0.0756 0.0327 -0.01797 -0.01148 -0.05548
0.01695 0.002455 -0.04547 0.0677 0.01822 0.004673 0.0579 -0.0734
-0.0773 0.03503 0.00821 0.04166 0.013 -0.0567 0.01656 -0.0437
0.01385 -0.0802 -0.02982 0.03363 0.03452 -0.03195 0.00419 -0.08325
-0.01698 -0.06195 -0.0142 0.11 0.02733 0.0741 0.02782 -0.06256
0.06055 0.002932 0.063 0.02487 0.0965 -0.05106 0.03415 0.011444
0.0463 -0.03064 0.02426 0.05206 -0.02463 0.009315 -0.02702 0.07104
-0.10645 0.05206 0.005253 -0.04483 -0.007515 0.02202 0.02705 -0.0541
0.0275 0.01932 -0.0174 -0.01126 -0.08765 0.01593 -0.06168 -0.000963
-0.06757 0.01573 0.03888 0.0802 -0.04 0.0569 -0.02411 -0.04672
-0.03745 0.0782 0.04376 -0.01956 -0.0607 -0.02177 0.06854 0.05368
0.0717 0.01001 0.03244 0.015396 0.03305 0.02348 0.02353 -0.0884
00000000: 2f29 a729 922b 90a8 651d fb27 b41c f9a5
00000010: a42a cca8 222c 6528 91a7 51ab 972a 6329
00000020: 3a2a c8ac ab27 f1a4 2029 5f2c d7a6 9127
00000030: 8a95 942c 482a 0c26 1427 30a5 c99c f124
00000040: 18a3 fbaa 4328 379d f7a9 3c1a b527 8aa4
00000050: 971f f1a3 caa7 87ad d619 8d2b dbab ba9f
00000060: c5a7 fe23 dfa7 bf9f 33ad 398a bc95 9ca8
00000070: a22c 3521 cfaa bba2 e9a6 6226 8eac 74a0
00000080: 99a0 2ba9 bd29 099e 74a1 89a6 e498 1821
00000090: 6a2a 87a8 42ac 8228 ec2c 95a9 c62b 0f9f
000000a0: 2e22 83ad d2a7 2c27 472a 589b 2f28 f624
000000b0: 502c 6b28 e521 c828 eeac 95ac 51a8 5a9e
000000c0: 33a7 b4a2 95a9 c9a2 5ea6 7f2c 33a8 eaa1
000000d0: d1aa 0aac 342e 0c2a e71d c4a8 81a9 31a8
000000e0: 19a1 51a6 4222 eeaa 8ea1 07a7 922a 2ba2
000000f0: daa6 a5a1 67a4 7428 20a8 a928 602c 09aa
00000100: 9723 e22a d6a4 caaa d1a9 cea1 5d25 9c2a
00000110: d6ab 8316 032c 502e 7528 d029 e725 bea8
00000120: 8324 022a 6d26 c0a9 8ca4 ee29 99ab ee2c
00000130: 6129 0faa 82aa 5cab 8323 48ab 262c 8b26
00000140: a627 bf27 6927 d7ac 3028 9aa4 e1a1 1aab
00000150: 5724 0719 d2a9 552c aa24 c91c 692b b3ac
00000160: f2ac 7c28 3420 5529 a822 42ab 3d24 98a9
00000170: 1723 22ad a2a7 4e28 6b28 17a8 4a1c 54ad
00000180: 59a4 eeab 45a3 0a2f ff26 be2c 1f27 01ac
00000190: c02b 011a 082c 5e26 2d2e 89aa 5f28 dc21
000001a0: ed29 d8a7 3626 aa2a 4ea6 c520 eba6 8c2c
000001b0: d0ae aa2a 611d bda9 b29f a325 ed26 edaa
000001c0: 0a27 f224 74a4 c4a1 9cad 1424 e5ab e493
000001d0: 53ac 0724 fa28 222d 1fa9 482b 2ca6 fba9
000001e0: cba8 012d 9a29 02a5 c5ab 93a5 632c df2a
000001f0: 972c 2021 2728 e223 3b28 0326 0626 a8ad

bias f2 [128]
0.0529 -0.0221 -0.0712 0.006687 0.01682 0.0671 -0.03342 -0.0776
0.04254 0.000994 0.0437 0.00948 -0.07855 0.04303 -0.02597 -0.03244
-0.0618 -0.015045 -0.004997 -0.0428 -0.0708 -0.02429 0.06168 0.01875
-0.05948 -0.03186 0.006287 -0.0792 0.005867 0.03418 0.05466 0.01504
-0.02222 0.0275 0.02663 -0.0453 0.01997 -0.05612 0.01395 -0.0753
0.03094 -0.02815 -0.03653 -0.06934 0.01117 0.01438 0.0382 -0.0881
0.0088 -0.0397 0.01247 -0.01499 0.0627 -0.03653 0.03683 0.01466
-0.03314 0.04013 -0.06323 -0.0716 -0.067 -0.001028 0.03555 0.0316
0.00679 0.03986 0.02454 -0.03677 -0.0618 0.0431 -0.02512 -0.00337
0.007423 0.008026 -0.05792 0.0298 0.05783 0.011734 0.0662 -0.0754
0.02107 -0.055 -0.0007973 0.0159 -0.005295 0.04633 0.02124 0.03018
0.0667 -0.0464 0.01325 0.02016 0.05795 0.0488 -0.0823 -0.0087
0.0133 -0.007435 0.0002964 -0.0909 0.06165 0.01299 -0.0726 0.02754
-0.04544 0.001196 -0.04044 -0.0594 -0.004467 0.0527 -0.03183 -0.07214
-0.01099 -0.02608 -0.0363 0.0206 -0.04367 0.00787 -0.0783 -0.008675
-0.08014 0.016 -0.03705 0.004704 0.0503 -0.03625 0.00721 -0.02641
00000000: c52a a8a5 8fac d91e 4e24 4b2c 47a8 f7ac
00000010: 7229 1214 9829 db20 07ad 8229 a6a6 27a8
00000020: e9ab b4a3 1e9d 7aa9 88ac 38a6 e52b cd24
00000030: 9dab 14a8 701e 12ad 021e 6028 ff2a b323
00000040: b0a5 0a27 d126 cca9 1d25 2fab 2423 d2ac
00000050: ec27 35a7 ada8 70ac b821 5d23 e428 a3ad
00000060: 8120 15a9 6222 ada3 032c ada8 b728 8223
00000070: 3ea8 2329 0cac 95ac 4aac 3694 8d28 0b28
00000080: f41e 1a29 4826 b5a8 e9ab 8429 6ea6 e79a
00000090: 9a1f 1c20 6aab a127 672b 0222 3d2c d3ac
000000a0: 6525 0aab 8892 1224 6c9d ee29 7025 ba27
000000b0: 452c f0a9 c922 2925 6b2b 3f2a 44ad 74a0
000000c0: cf22 9d9f db0c d1ad e42b a722 a5ac 0d27
000000d0: d1a9 e614 2da9 9aab 939c bf2a 13a8 9eac
000000e0: a0a1 ada6 a5a8 4625 97a9 0820 03ad 71a0
000000f0: 21ad 1924 bea8 d11c 702a a4a8 621f c3a6

weight f2 [128]
1.037 0.9873 0.9985 1.019 0.9917 1.003 1.033 1.011
1.015 0.973 1.041 1.018 1.014 0.9834 0.9736 1.015
1.008 1.015 1.032 1.007 1.011 1.037 1.013 0.9863
1.027 1.007 1.013 0.985 0.9917 0.9976 0.993 0.985
0.989 0.9727 0.999 1.033 1.013 0.988 0.9995 0.991
0.982 0.9766 1.008 1.008 0.9917 0.976 1.014 1.001
1.0 1.019 0.993 0.9927 1.009 0.9883 1.023 1.011
1.02 1.001 0.9917 0.963 0.9927 1.027 0.997 1.015
0.9995 1.015 1.008 0.963 1.043 1.018 0.995 1.004
0.993 0.986 1.009 0.988 0.992 1.035 1.004 1.025
1.006 1.033 0.9517 1.008 0.982 0.9917 1.028 0.9873
0.9873 0.9917 0.987 1.026 1.006 1.035 1.016 1.027
0.9995 1.019 0.9883 0.9937 0.9844 1.004 0.994 0.984
0.992 0.991 0.9854 1.007 1.011 0.9976 0.976 1.005
0.9966 0.997 1.006 0.9985 1.021 0.985 1.0 1.015
1.036 1.013 1.018 1.013 0.9863 1.018 0.99 0.988
00000000: 263c e63b fd3b 133c ef3b 033c 223c 0b3c
00000010: 0f3c c93b 2a3c 123c 0e3c de3b ca3b 0f3c
00000020: 083c 0f3c 213c 073c 0b3c 263c 0d3c e43b
00000030: 1c3c 073c 0d3c e13b ef3b fb3b f23b e13b
00000040: e93b c83b fe3b 223c 0d3c e73b ff3b ee3b
00000050: db3b d03b 083c 083c ef3b cf3b 0e3c 013c
00000060: 003c 133c f23b f13b 093c e83b 183c 0b3c
00000070: 143c 013c ef3b b43b f13b 1c3c fa3b 0f3c
00000080: ff3b 0f3c 083c b43b 2c3c 123c f63b 043c
00000090: f23b e33b 093c e73b f03b 243c 043c 1a3c
000000a0: 063c 223c 9d3b 083c db3b ef3b 1d3c e63b
000000b0: e63b ef3b e53b 1b3c 063c 243c 103c 1c3c
000000c0: ff3b 133c e83b f33b e03b 043c f43b df3b
000000d0: f03b ee3b e23b 073c 0b3c fb3b cf3b 053c
000000e0: f93b fa3b 063c fd3b 163c e13b 003c 0f3c
000000f0: 253c 0d3c 123c 0d3c e43b 123c ec3b e73b

bias f2 [128]
0.01913 0.003986 0.01872 0.0136 -0.02428 0.007347 -0.0392 -0.008965
0.0362 0.04678 0.04523 -0.015274 -0.03683 0.01368 0.03583 -0.0105
-0.000967 0.007195 -0.01657 -0.004852 -0.013626 0.006447 0.01682 0.00942
-0.03162 -0.01868 -0.01746 0.00812 0.00317 0.0086 0.01558 0.03424
0.00891 0.006783 0.0014305 0.00287 0.02188 -0.011345 0.002342 0.004944
0.0008907 0.01164 0.00255 -0.00796 0.01474 0.014786 -0.00594 -0.01816
-0.002962 0.004932 0.02844 0.01892 0.03247 -0.00536 0.01548 -0.009926
0.00849 0.02893 0.00876 0.00586 -0.010895 0.0005608 0.02887 -0.00269
0.0099 -0.003101 0.01432 -0.03134 0.00975 -0.006195 0.006535 -0.00272
0.01339 -0.01593 -0.01044 0.01573 0.03186 -0.0086 0.01982 -0.02849
-0.0084 0.001501 0.003012 0.004185 0.006092 0.01003 -0.006454 -0.00705
0.004124 -0.01224 -0.00727 -0.007698 0.0243 0.012245 -0.01222 -0.01732
0.0275 -0.026 -0.02028 -0.006584 0.008446 -0.03918 0.0008173 0.0174
0.01726 0.009895 0.01688 -0.01942 0.00668 0.03204 0.01494 -0.01622
0.0314 0.006935 0.00664 0.004227 -0.002125 0.0005875 -0.01683 -0.01442
-0.004395 0.00962 -0.02426 0.000511 0.01338 0.01511 0.01736 0.002342
00000000: e624 151c cb24 f722 37a6 861f 05a9 97a0
00000010: a228 fd29 ca29 d2a3 b7a8 0123 9628 60a1
00000020: ec93 5e1f 3ea4 f89c faa2 9a1e 4e24 d320
00000030: 0ca8 c8a4 78a4 2820 7e1a 6720 fa23 6228
00000040: 9020 f21e dc15 e119 9a25 cfa1 cc18 101d
00000050: 4c13 f621 3919 13a0 8c23 9223 159e a6a4
00000060: 119a 0d1d 4827 d824 2828 7d9d ed23 15a1
00000070: 5920 6827 7c20 001e 94a1 9810 6427 8299
00000080: 1221 5a9a 5523 03a8 fe20 589e b11e 9299
00000090: db22 14a4 58a1 0724 1428 67a0 1325 4ba7
000000a0: 4da0 2616 2b1a 491c 3d1e 2321 9c9e 389f
000000b0: 391c 44a2 729f e29f 3926 4522 42a2 6fa4
000000c0: 0a27 a8a6 31a5 be9e 5320 04a9 b212 7424
000000d0: 6b24 1121 5224 f9a4 d71e 1a28 a623 27a4
000000e0: 0528 1a1f cd1e 541c 5a98 d010 4fa4 62a3
000000f0: 809c ed20 36a6 3010 da22 bc23 7224 cc18

weight f2 [23, 128]
0.11896 0.02449 0.1334 0.04437 -0.0816 0.0538 -0.0899 -0.0383
0.10205 0.08405 -0.012314 0.006046 -0.05908 -0.01787 0.06915 -0.1263
-0.00891 -0.0958 -0.03293 -0.06088 0.02675 0.03204 0.0697 -0.04865
-0.04474 0.0663 -0.013374 -0.01883 0.02538 -0.0346 0.0922 0.0403
-0.06128 -0.04678 0.08954 -0.1028 -0.03146 0.0385 0.0909 -0.02872
0.01686 -0.05786 0.0776 0.0681 0.02016 0.02992 -0.006145 -0.09045
0.03625 -0.0698 -0.00402 0.07715 -0.0688 -0.06085 -0.08954 -0.01237
0.0383 0.05383 0.02814 0.08234 -0.0396 -0.01686 -0.04303 -0.00662
0.0791 0.08307 -0.0639 0.0606 0.06647 0.03122 0.01272 -0.04913
-0.00924 -0.07556 -0.04248 0.06046 0.06226 0.04315 -0.04428 0.003052
-0.06082 -0.08 -0.0222 0.0009704 0.04446 -0.012024 0.01953 0.02588
-0.02553 0.0459 0.004524 0.0385 -0.0252 0.06885 -0.02579 -0.06665
-0.0747 -0.0849 -0.0636 0.04465 -0.01177 -0.001187 -0.09265 -0.04385
-0.01439 -0.01775 0.05878 0.0859 0.02304 0.1298 -0.007317 -0.0877
-0.04208 -0.02275 0.003654 -0.05933 0.0302 0.08356 0.08984 -0.07263
-0.00814 -0.08276 -0.07306 -0.07916 0.00283 0.003214 -0.05072 0.04132
0.04782 0.0649 -0.0369 -0.1092 -0.02087 0.03168 0.02621 0.012436
0.09216 -0.00498 0.03577 -0.0395 -0.0746 -0.08765 0.032 -0.0708
-0.0871 -0.0798 -0.00354 0.06366 -0.0683 -0.0708 0.04987 0.00455
0.013084 -0.01729 -0.003899 0.08124 0.08777 0.001106 0.001993 0.04126
-0.0568 -0.0845 -0.0632 -0.02296 0.06024 0.06305 -0.0003912 0.01533
0.004143 0.06287 0.09344 0.0726 -0.01967 -0.04697 -0.01695 -0.02263
0.0048 -0.0473 -0.02501 0.0851 0.06067 -0.04068 0.05487 0.1131
-0.09735 -0.01863 0.0357 -0.06586 -0.0644 0.03595 -0.06744 -0.0708
0.0549 0.00501 -0.04037 0.007668 -0.0567 -0.0716 -0.04956 0.04483
0.08386 -0.00681 -0.0564 0.042 0.001587 -0.04507 -0.0611 0.0597
0.01449 0.09454 -0.01874 -0.01569 0.0715 0.01093 0.05124 -0.0442
-0.01018 0.04865 -0.06335 0.02548 0.065 -0.07654 0.0667 0.06616
0.00667 -0.0957 -0.0663 0.03616 0.04935 -0.0322 0.0393 0.04388
0.01648 -0.0406 0.10095 0.0867 -0.072 -0.03796 -0.02763 -0.01467
0.0461 -0.0851 -0.0164 -0.0787 -0.1099 0.06537 -0.005924 0.04788
-0.01354 0.02019 -0.0668 0.0447 0.09436 -0.0767 -0.076 0.05106
00000000: 9d2f 4526 4530 ae29 39ad e32a c1ad e7a8
00000010: 882e 612d 4ea2 311e 90ab 93a4 6d2c 0bb0
00000020: 90a0 22ae 37a8 cbab d926 1a28 762c 3aaa
00000030: baa9 3e2c d9a2 d2a4 7f26 6ea8 e72d 2929
00000040: d8ab fda9 bb2d 94ae 07a8 ee28 d12d 5aa7
00000050: 5124 68ab f72c 5c2c 2925 a927 4b9e caad
00000060: a428 78ac 1e9c f02c 67ac caab bbad 55a2
00000070: e728 e42a 3427 452d 12a9 51a4 82a9 c79e
00000080: 102d 512d 17ac c22b 412c fe27 8322 4aaa
00000090: bba0 d6ac 70a9 bd2b f82b 8629 aba9 401a
000000a0: c9ab 1fad afa5 f313 b129 28a2 0025 a026
000000b0: 89a6 e029 a21c ee28 74a6 682c 9aa6 44ac
000000c0: c8ac 6fad 12ac b729 07a2 dd94 eead 9da9
000000d0: 5ea3 8ba4 862b 7f2d e625 2730 7e9f 9dad
000000e0: 63a9 d3a5 7c1b 98ab bb27 592d c02d a6ac
000000f0: 2ba0 4cad adac 11ad cc19 951a 7eaa 4a29
00000100: 1f2a 272c b9a8 fdae 58a5 0e28 b626 5e22
00000110: e62d 199d 9428 0ea9 c6ac 9cad 1928 88ac
00000120: 93ad 1bad 409b 132c 5fac 88ac 622a a91c
00000130: b322 6da4 fc9b 332d 9e2d 8814 1518 4829
00000140: 45ab 68ad 0bac e1a5 b62b 092c 698e d923
00000150: 3e1c 062c fb2d a52c 09a5 03aa 57a4 cba5
00000160: ea1c 0eaa 67a6 722d c42b 35a9 062b 3d2f
00000170: 3bae c5a4 9228 37ac 1fac 9a28 51ac 88ac
00000180: 072b 211d 2ba9 da1f 42ab 95ac 58aa bd29
00000190: 5e2d f99e 38ab 6029 8016 c5a9 d2ab a42b
000001a0: 6b23 0d2e cca4 04a4 932c 9921 8f2a a8a9
000001b0: 36a1 3a2a 0eac 8626 292c e6ac 452c 3c2c
000001c0: d51e 20ae 3eac a128 512a 1fa8 0829 9e29
000001d0: 3824 32a9 762e 8c2d 9cac dca8 13a7 83a3
000001e0: e729 72ad 33a4 09ad 09af 2f2c 119e 212a
000001f0: efa2 2b25 46ac b929 0a2e e9ac ddac 892a

bias f2 [23]
0.06775 0.014305 0.0628 -0.02077 -0.05377 -0.00351 -0.03326 -0.06635
0.081 0.0139 -0.10095 -0.0654 -0.08276 0.0638 -0.015045 0.0764
-0.04852 0.0671 -0.01423 -0.1133 0.04068 -0.0592 -0.096
00000000: 562c 5323 052c 51a5 e2aa 309b 42a8 3fac
00000010: 2f2d 1e23 76ae 30ac 4cad 152c b4a3 e42c
00000020: 36aa 4b2c 49a3 40af 3529 94ab 25ae

w0 f2 [4, 62, 128]
-0.0327 0.001953 -0.001627 -0.02184 0.015396 0.05176 -5.376e-05 -0.002966
-0.0337 0.01631 -0.009865 -0.008484 -0.00931 -0.0119 0.01581 -0.005733
0.00956 0.03854 0.00541 0.001536 0.0375 0.04123 0.00807 0.04944
-0.02243 -0.01614 0.01263 -0.0461 -0.02545 0.0346 0.001421 0.04117
-0.00931 0.015465 -0.01303 -0.02074 -0.00825 0.010956 0.05365 -0.03326
0.000161 -0.01746 0.02158 0.03177 0.005657 -0.02185 0.001639 -0.00628
-0.00409 -0.02687 0.0222 0.0158 -0.01314 0.01308 -0.004093 0.001096
0.007534 -0.003273 -0.005913 0.02309 0.003096 -0.004154 0.02522 -0.02188
0.01833 0.03091 0.01044 -0.009026 0.02284 0.02887 0.000514 0.02219
-0.00859 0.01117 0.009346 0.00069 0.01949 0.03696 0.00537 -0.02177
0.03099 0.00784 0.0279 0.00834 0.001657 0.02708 0.00451 -0.00201
-0.01015 -0.001236 -0.00196 0.01724 0.0007367 -0.01525 -0.01104 0.03207
-0.005356 0.043 -0.0088 0.0457 0.01614 -0.02287 0.02129 0.0335
0.02554 0.0342 0.01358 -0.02318 -0.01124 0.004868 0.009865 -0.02258
0.01335 0.02524 0.003181 -0.02089 -0.01083 -0.003325 0.01985 -0.006676
0.01945 -0.05298 -0.02144 0.0045 -0.03235 0.0211 0.02013 0.02222
-0.01136 -0.0325 -0.0478 -0.01303 -0.05762 -0.02373 -0.02063 -0.02843
-0.02869 0.01377 -0.04694 -0.0538 0.02893 -0.03647 -0.00955 0.0291
0.01387 0.002527 0.04297 0.0011425 0.001542 0.04108 -0.04846 0.01991
0.02583 -0.0171 -0.05325 -0.0337 0.01695 0.03033 0.004696 0.01142
-0.02249 0.003551 -0.0458 -0.02989 -0.01025 -0.02988 0.0355 -0.02962
0.04153 -0.02742 0.004726 -0.0009007 0.02832 0.02185 0.000776 -0.00565
-0.02153 0.01195 0.02422 0.03806 -0.0201 -0.001276 -0.0001448 -0.01144
0.003864 -0.01145 0.006992 -0.006268 0.0347 0.02356 0.02301 -0.01831
-0.01799 0.03046 -0.003195 0.0002954 0.02695 0.0248 0.0313 0.0212
-0.02713 0.01564 0.03008 0.03105 0.0343 -0.01095 -0.02913 -0.01743
0.0655 -0.01238 0.0514 -0.035 -0.003376 -0.00975 -0.00584 0.00481
-0.00965 -0.01953 0.015434 0.01157 -0.00983 -0.013 -0.02794 0.004795
0.03732 0.01045 0.02122 -0.03046 0.02545 -0.05142 -0.02742 0.01883
0.0377 -0.01138 0.02234 -0.04126 0.04483 -0.00099 0.01302 -0.01662
-0.03162 0.0114 -0.01029 0.03558 -0.02168 0.01141 0.02762 0.0257
-0.00474 -0.03735 -0.002369 0.02318 -0.05933 -0.00512 0.018 -0.01952
00000000: 30a8 0018 aa96 97a5 e223 a02a 8683 139a
00000010: 50a8 2d24 0da1 58a0 c4a0 18a2 0c24 df9d
00000020: e520 ef28 8a1d 4b16 cd28 4729 2220 542a
00000030: bea5 22a4 7722 e7a9 84a6 6e28 d215 4529
00000040: c4a0 eb23 aca2 4fa5 39a0 9c21 de2a 42a8
00000050: 4709 78a4 8625 1128 cb1d 98a5 b716 6e9e
00000060: 309c e1a6 af25 0b24 baa2 b222 319c 7d14
00000070: b71f b49a 0e9e e925 571a 419c 7526 9aa5
00000080: b124 ea27 5821 9fa0 d925 6427 3610 ae25
00000090: 66a0 b821 c920 a711 fd24 bb28 801d 93a5
000000a0: ef27 0420 2427 4520 c916 ef26 9e1c 1e98
000000b0: 32a1 1095 0498 6a24 0912 cfa3 a7a1 1b28
000000c0: 7c9d 8129 81a0 d929 2224 dba5 7325 4a28
000000d0: 8a26 6128 f422 efa5 c1a1 fc1c 0d21 c8a5
000000e0: d622 7626 841a 59a5 8ca1 cf9a 1525 d69e
000000f0: fb24 c8aa 7da5 9c1c 24a8 6725 2725 b025
00000100: d1a1 29a8 1eaa aca2 60ab 13a6 48a5 47a7
00000110: 58a7 0d23 02aa e3aa 6827 aba8 e4a0 7327
00000120: 1a23 2d19 8029 ae14 5116 4229 34aa 1925
00000130: 9d26 61a4 d1aa 50a8 5724 c427 cf1c d921
00000140: c2a5 461b dda9 a7a7 3fa1 a6a7 8b28 95a7
00000150: 5129 05a7 d71c 6193 4027 9825 5b12 c99d
00000160: 83a5 1e22 3326 df28 25a5 3a95 bf88 dba1
00000170: ea1b dda1 291f 6b9e 7128 0826 e425 b0a4
00000180: 9ba4 cc27 8b9a d70c e626 5926 0228 6d25
00000190: f2a6 0124 b327 f327 6428 9ba1 75a7 76a4
000001a0: 312c 57a2 942a 7ba8 ea9a fea0 fb9d ed1c
000001b0: f1a0 00a5 e723 ed21 08a1 a8a2 27a7 e91c
000001c0: c728 5a21 6f25 cca7 8426 95aa 05a7 d224
000001d0: d328 d4a1 b825 48a9 bd29 0e94 ab22 41a4
000001e0: 0ca8 d621 45a1 8e28 8da5 d821 1227 9426
000001f0: db9c c8a8 da98 ef25 98ab 3e9d 9c24 ffa4

b0 f2 [4, 128]
0.0167 0.0354 0.0008583 0.01662 0.01299 0.02301 -0.00833 0.009445
0.00989 -0.00829 0.001165 -0.0305 0.03099 -0.001742 0.03226 0.0175
0.02103 0.0391 0.0378 0.0102 0.012024 0.0797 -0.005665 0.02519
0.0337 0.01923 -0.004574 -0.007244 0.00817 0.009514 0.0353 0.02367
0.02 0.003845 -0.01282 0.02196 -0.001138 0.00568 0.00956 0.008
0.02554 0.007042 0.00277 0.016 0.02406 0.00755 0.02211 0.01046
0.0298 0.003574 0.013916 0.01089 0.01239 -0.01373 0.00823 0.02512
0.003847 -0.02913 0.02138 0.02022 0.02267 0.0158 0.01904 -0.01758
0.01877 0.03001 0.01246 -0.001528 0.008995 0.02194 0.03278 0.025
-0.0137 0.00492 0.02121 0.04257 0.02982 0.01294 -0.0035 0.006413
0.00864 0.01564 0.03116 0.0318 0.02063 0.0345 0.0203 0.03613
0.02583 0.02412 0.0137 0.00857 0.01559 0.004333 0.02457 0.00669
0.02264 -0.00183 0.0185 -0.01636 -0.004917 -0.0537 -0.01343 0.06976
0.02792 0.007168 0.01162 0.02527 0.02283 0.02122 0.02371 0.00802
-0.001026 -0.009445 0.03552 0.02246 -0.02017 0.012474 0.02586 0.02113
-0.02278 -0.008095 0.01588 -0.01298 -0.0272 0.02086 0.02351 0.01631
0.0133 0.02266 0.002764 0.00656 0.005764 0.0183 -0.01433 0.0142
0.003761 0.003218 -0.00468 -0.01373 0.02829 -0.0007443 0.02069 0.02243
0.02841 0.03336 0.02878 0.011894 0.01216 0.04666 0.0002844 0.02026
0.03906 0.01298 -0.003195 0.003239 0.012726 0.01043 0.02237 0.02266
0.0178 0.01428 -0.015144 0.014786 0.01403 0.003044 0.01345 -0.0006204
0.02928 0.003338 0.007668 0.02327 0.02242 0.010704 0.02902 0.014114
0.02452 0.0019455 0.01265 0.02515 0.010124 -0.005875 0.01959 0.0234
0.006485 -0.012665 0.02507 0.02295 0.0194 0.01217 0.0138 -0.01179
0.01046 0.02519 0.01656 8.476e-05 0.01799 0.0128 0.03278 0.01869
-0.007725 0.0009255 0.01953 0.013405 0.03287 0.01416 0.000848 0.00589
0.02698 0.002377 0.02892 0.01723 0.0115 0.02986 0.02396 0.02034
0.01405 0.01686 0.01331 0.01336 0.013596 0.01744 0.01252 -0.003212
0.02113 -0.01093 0.01415 -0.00348 -0.0005274 -0.04016 -0.000422 0.0429
0.02908 0.0047 0.00968 0.01558 0.01717 0.013306 0.02475 0.01195
-0.00619 0.002726 0.03693 0.02303 -0.001471 0.01805 0.0198 0.014656
-0.007046 -0.006382 0.01081 -0.009705 -0.01155 0.01723 0.02103 0.013985
00000000: 4624 8828 0813 4124 a722 e425 44a0 d620
00000010: 1021 3fa0 c614 cfa7 ef27 2397 2128 7b24
00000020: 6225 0129 d728 3921 2822 1a2d cd9d 7326
00000030: 5028 ec24 af9c 6b9f 2f20 df20 8528 0f26
00000040: 1f25 e01b 90a2 9f25 a994 d11d e520 1920
00000050: 8a26 361f ac19 1924 2926 bb1f a925 5b21
00000060: a127 521b 2023 9321 5822 08a3 3720 6e26
00000070: e11b 75a7 7925 2d25 ce25 0b24 e024 80a4
00000080: ce24 af27 6122 4296 9b20 9e25 3228 6626
00000090: 04a3 0a1d 6e25 7329 a227 a022 2b9b 911e
000000a0: 6c20 0124 fa27 1228 4825 6a28 3225 a028
000000b0: 9d26 2d26 0423 6320 fb23 701c 4a26 da1e
000000c0: cc25 7f97 bc24 30a4 099d e0aa e0a2 772c
000000d0: 2627 571f f321 7826 d825 6f25 1226 1b20
000000e0: 3494 d6a0 8c28 c025 2aa5 6322 9f26 6925
000000f0: d5a5 25a0 1124 a5a2 f7a6 5725 0526 2d24
00000100: cf22 cd25 a919 b81e e71d af24 56a3 4523
00000110: b41b 971a cb9c 08a3 3e27 1992 4c25 be25
00000120: 4627 4528 5e27 1722 3a22 f929 a90c 3025
00000130: 0029 a522 8b9a a21a 8422 5721 ba25 cd25
00000140: 8f24 5023 c1a3 9223 2f23 3c1a e322 1591
00000150: 7f27 d61a da1f f525 bd25 7b21 6e27 3a23
00000160: 4726 f817 7a22 7026 2f21 049e 0425 fe25
00000170: a41e 7ca2 6b26 e025 f724 3b22 1123 09a2
00000180: 5b21 7326 3d24 8e05 9b24 8e22 3228 c924
00000190: e99f 9513 0025 dd22 3528 4023 f212 081e
000001a0: e826 de18 6727 6924 e321 a527 2226 3525
000001b0: 3223 5124 d122 d722 f622 7724 6922 949a
000001c0: 6925 99a1 3f23 219b 5290 24a9 ea8e 7e29
000001d0: 7227 d01c f520 fa23 6524 d022 5626 1e22
000001e0: 579e 9519 ba28 e525 0696 9f24 1225 8123
000001f0: 379f 899e 8921 f8a0 eaa1 6924 6225 2923

w1 f2 [4, 151, 128]
0.007362 0.0222 -0.02023 -0.0042 -0.000983 0.02347 0.04877 0.00673
-0.01971 -0.006645 -0.01799 0.0252 -0.01625 -0.006317 0.03036 0.04126
0.01115 0.0332 -0.01287 0.04816 0.00908 0.02222 -0.03134 -0.02274
-0.02914 0.0356 -0.01688 -0.02097 0.01007 0.05283 -0.006897 0.02469
-0.03738 0.01275 -0.0644 0.004395 -0.03238 0.003061 0.006744 0.011246
-0.03833 0.01251 0.03687 -0.0529 0.0101 -0.013565 0.02458 0.01819
-0.02992 -0.0405 -0.0347 -0.03023 0.01909 0.03632 0.001953 -0.001118
-0.000689 -0.03265 -0.04218 0.02649 0.076 -0.0169 0.01648 0.03099
0.001301 0.01752 -0.02603 -0.03137 -0.00708 0.06113 -0.002071 -0.01842
0.03503 0.0224 -0.0183 0.014275 0.02264 0.023 -0.01685 -0.005978
0.01907 -0.02684 0.02782 -0.00305 0.0548 0.01917 -0.0015 -0.03528
-0.055 -0.000154 0.02055 -0.004166 0.011284 0.00493 0.04086 0.0488
0.02844 0.0625 0.01145 0.0012865 0.01903 0.03357 -0.013565 -0.04175
0.004414 -0.02847 -0.001145 0.02083 -0.01083 0.01758 -0.00394 0.02808
-0.00697 -0.03128 0.000963 -0.00712 0.0466 0.0738 -0.00883 0.012474
-0.0577 0.006866 0.01357 -0.001523 0.01049 0.0004423 0.0722 0.02835
-0.04474 -0.01458 -0.01557 0.00909 -0.0483 -0.001862 -0.002304 0.009346
-0.00827 -0.01936 -0.0413 0.02022 -0.00964 0.03375 -0.03114 -0.01237
-0.004185 0.014854 0.010796 0.0477 -0.01843 0.02356 0.006794 0.001639
-0.0648 0.01263 0.007374 -0.0368 0.06494 0.00904 -0.04855 -0.00715
0.001672 0.02472 0.01913 -0.0007 -0.01976 0.003428 -0.01552 -0.01316
-0.0658 -0.00281 0.006485 -0.02682 0.02225 0.01526 0.002567 -0.005203
-0.04617 -0.014725 -0.02339 -0.02603 0.006947 0.001737 0.05045 0.04047
0.001691 -0.04388 -0.02956 0.01281 0.02585 -0.01349 -0.01863 0.02435
0.007504 0.02916 0.02628 -0.04858 0.02551 0.02422 -0.0354 -0.038
0.03069 0.04706 -0.01379 0.00816 0.0384 0.01219 -0.02103 -0.008606
0.05295 -0.0375 0.02705 -0.02356 0.03268 -0.00811 -0.011406 -0.01634
0.0002404 -0.05426 0.01875 0.02696 0.04785 0.02469 0.02917 -0.000313
-0.0405 0.04324 0.01279 -0.0274 0.002323 0.01965 -0.01782 -0.03104
-0.00737 -0.05002 -0.0412 -0.002026 -0.03638 0.004036 -0.00743 -0.006245
-0.0421 0.0384 0.02164 0.009254 0.03598 0.05 -0.05457 -0.007156
-0.02774 0.01944 0.01117 -0.04355 0.010666 -0.01785 0.03458 0.01336
00000000: 8a1f af25 2ea5 4d9c 0794 0226 3e2a e41e
00000010: 0ca5 ce9e 9ba4 7426 29a4 789e c627 4829
00000020: b521 4028 97a2 2a2a a620 b025 03a8 d2a5
00000030: 76a7 8f28 52a4 5ea5 2821 c32a 109f 5226
00000040: c9a8 8722 1fac 801c 25a8 451a e81e c221
00000050: e8a8 6822 b828 c5aa 2c21 f2a2 4b26 a824
00000060: a9a7 2fa9 71a8 bda7 e324 a628 0018 9494
00000070: a591 2ea8 66a9 c826 dd2c 54a4 3824 ef27
00000080: 5415 7c24 aaa6 04a8 409f d32b 3e98 b7a4
00000090: 7c28 bc25 afa4 4f23 cc25 e325 50a4 1f9e
000000a0: e224 dfa6 1f27 3f9a 042b e824 2596 84a8
000000b0: 0aab 0c89 4325 449c c721 0c1d 3b29 3f2a
000000c0: 4827 002c dd21 4515 df24 4c28 f2a2 58a9
000000d0: 851c 4aa7 b194 5525 8ca1 8024 099c 3027
000000e0: 239f 01a8 e413 4a9f f729 b92c 85a0 6322
000000f0: 63ab 081f f322 3d96 5f21 3f0f 9f2c 4227
00000100: baa9 77a3 f9a3 a720 2faa a097 b898 c920
00000110: 3ca0 f5a4 49a9 2d25 f0a0 5228 f9a7 55a2
00000120: 499c 9b23 8721 1b2a b8a4 0826 f51e b716
00000130: 26ac 7722 8d1f b6a8 282c a120 37aa 529f
00000140: d916 5426 e624 bc91 0fa5 051b f2a3 bda2
00000150: 36ac c199 a41e dea6 b225 d023 4219 549d
00000160: e9a9 8aa3 fda5 aaa6 1d1f 1d17 752a 2e29
00000170: ed16 9ea9 91a7 8f22 9e26 e8a2 c5a4 3c26
00000180: af1f 7727 ba26 38aa 8826 3326 88a8 dda8
00000190: db27 062a 0fa3 2e20 ea28 3e22 62a5 68a0
000001a0: c72a cda8 ed26 08a6 2f28 27a0 d7a1 2fa4
000001b0: e10b f2aa cd24 e726 202a 5226 7827 218d
000001c0: 2fa9 8929 8c22 04a7 c218 0825 90a4 f2a7
000001d0: 8c9f 67aa 46a9 2698 a8a8 221c 9c9f 659e
000001e0: 64a9 ea28 8a25 bd20 9b28 662a fcaa 549f
000001f0: 1aa7 fa24 b821 93a9 7621 92a4 6d28 d722
